…
relu\"") %>%\n  layer_conv_2d(32, 3, activation = \""relu\"") %>%\n  layer_max_pooling_2d(3) %>%\n  layer_conv_2d(32, 3, activation = \""relu\"") %>%\n  layer_conv_2d(32, 3, activation = \""relu\"") %>%\n  layer_max_pooling_2d(2) \n\n# And now?\nmodel\n```\n\n::: {.cell-output .cell-output-stdout}\n```\nModel: \""sequential_5\""\n____________________________________________________________________________\n Layer (type)                     Output Shape                  Param #     \n============================================================================\n conv2d_1 (Conv2D)                (None, 123, 123, 32)          2432        \n conv2d (Conv2D)                  (None, 121, 121, 32)          9248        \n max_pooling2d (MaxPooling2D)     (None, 40, 40, 32)            0           \n conv2d_5 (Conv2D)                (None, 38, 38, 32)            9248        \n conv2d_4 (Conv2D)                (None, 36, 36, 32)            9248        \n max_pooling2d_2 (MaxPooling2D)   (None, 12, 12, 32)            0           \n conv2d_3 (Conv2D)                (None, 10, 10, 32)            9248        \n conv2d_2 (Conv2D)                (None, 8, 8, 32)              9248        \n max_pooling2d_1 (MaxPooling2D)   (None, 4, 4, 32)              0           \n============================================================================\nTotal params: 48,672\nTrainable params: 48,672\nNon-trainable params: 0\n____________________________________________________________________________\n```\n:::\n\n```{.r .cell-code}\n# Now that we have 4x4 feature maps, time to apply global max pooling.\nmodel %>% layer_global_max_pooling_2d()\n\n# Finally, 
…
 3, activation = \""relu\"") %>%\n  layer_global_max_pooling_2d()\n\nencoder <- keras_model(encoder_input, encoder_output, \n                       name = \""encoder\"")\nencoder\n```\n\n::: {.cell-output .cell-output-stdout}\n```\nModel: \""encoder\""\n____________________________________________________________________________\n Layer (type)                     Output Shape                  Param #     \n============================================================================\n img (InputLayer)                 [(None, 28, 28, 1)]           0           \n conv2d_3 (Conv2D)                (None, 26, 26, 16)            160         \n conv2d_2 (Conv2D)                (None, 24, 24, 32)            4640        \n max_pooling2d (MaxPooling2D)     (None, 8, 8, 32)              0           \n conv2d_1 (Conv2D)                (None, 6, 6, 32)              9248        \n conv2d (Conv2D)                  (None, 4, 4, 16)              4624        \n global_max_pooling2d (GlobalMaxP  (None, 16)                   0           \n ooling2D)                                                                  \n============================================================================\nTotal params: 18,672\nTrainable params: 18,672\nNon-trainable params: 0\n____________________________________________________________________________\n```\n:::\n\n```{.r .cell-code}\ndecoder_output <- encoder_output %>%\n  layer_re
…
v_2d_transpose(1, 3, activation = \""relu\"")\n\nautoencoder <- keras_model(encoder_input, decoder_output, \n                           name = \""autoencoder\"")\nautoencoder\n```\n\n::: {.cell-output .cell-output-stdout}\n```\nModel: \""autoencoder\""\n____________________________________________________________________________\n Layer (type)                     Output Shape                  Param #     \n============================================================================\n img (InputLayer)                 [(None, 28, 28, 1)]           0           \n conv2d_3 (Conv2D)                (None, 26, 26, 16)            160         \n conv2d_2 (Conv2D)                (None, 24, 24, 32)            4640        \n max_pooling2d (MaxPooling2D)     (None, 8, 8, 32)              0           \n conv2d_1 (Conv2D)                (None, 6, 6, 32)              9248        \n conv2d (Conv2D)                  (None, 4, 4, 16)              4624        \n global_max_pooling2d (GlobalMaxP  (None, 16)                   0           \n ooling2D)                                                                  \n reshape (Reshape)                (None, 4, 4, 1)               0           \n conv2d_transpose_3 (Conv2DTransp  (None, 6, 6, 16)             160         \n ose)                                                                       \n conv2d_transpose_2 (Conv2DTransp  (None, 8, 8, 32)             4640        \n ose)                                                                       \n up_sampling2d (UpSampling2D)     (None, 24, 24, 32)            0           \n conv2d_transpose_1 (Conv2DTransp  (None, 26, 26, 16)           4624        \n ose)                                                                       \n conv2d_transpose (Conv2DTranspos  (None, 28, 28, 1)            145         \n e)                                                                         \n============================================================================\nTotal params: 28,241\nTrainable params: 28,241\nNon-trainable params: 0\n____________________________________________________________________________\n```\n:::\n:::\n\n\nHere, the decoding architecture is strictly symmetrical to the 
…
"") %>%\n  layer_conv_2d_transpose(1, 3, activation = \""relu\"")\n\ndecoder <- keras_model(decoder_input, decoder_output, \n                       name = \""decoder\"")\ndecoder\n```\n\n::: {.cell-output .cell-output-stdout}\n```\nModel: \""decoder\""\n____________________________________________________________________________\n Layer (type)                     Output Shape                  Param #     \n============================================================================\n encoded_img (InputLayer)         [(None, 16)]                  0           \n reshape_1 (Reshape)              (None, 4, 4, 1)               0           \n conv2d_transpose_7 (Conv2DTransp  (None, 6, 6, 16)             160         \n ose)                                                                       \n conv2d_transpose_6 (Conv2DTransp  (None, 8, 8, 32)             4640        \n ose)                                                                       \n up_sampling2d_1 (UpSampling2D)   (None, 24, 24, 32)            0           \n conv2d_transpose_5 (Conv2DTransp  (None, 26, 26, 16)           4624        \n ose)                                                                       \n conv2d_transpose_4 (Conv2DTransp  (None, 28, 28, 1)            145         \n ose)                                                                       \n============================================================================\nTotal params: 9,569\nTrainable params: 9,569\nNon-trainable params: 0\n____________________________________________________________________________\n```\n:::\n\n```{.r .cell-code}\nautoencoder_input <- layer_input(shape = c(28, 28, 1
…
ning in inference mode here.\n  base_model(training = FALSE) %>%\n  layer_global_average_pooling_2d() %>%\n  layer_dropout(.2) %>%\n  layer_dense(1)\n\nmodel <- keras_model(inputs, outputs)\nmodel\n```\n\n::: {.cell-output-stdout}\n```\nModel: \""model_1\""\n____________________________________________________________________________\n Layer (type)                Output Shape              Param #   Trainable  \n============================================================================\n input_7 (InputLayer)        [(None, 150, 150, 3)]     0         Y          \n sequential_3 (Sequential)   (None, 150, 150, 3)       0         Y          \n rescaling (Rescaling)       (None, 150, 150, 3)       0         Y          \n xception (Functional)       (None, 5, 5, 2048)        20861480  N          \n global_average_pooling2d_1   (None, 2048)             0         Y          \n (GlobalAveragePooling2D)                                                   \n dropout (Dropout)           (None, 2048)              0         Y          \n dense_8 (Dense)             (None, 1)                 2049      Y          \n============================================================================\nTotal params: 20,863,529\nTrainable params: 2,049\nNon-trainable params: 20,861,480\n____________________________________________________________________________\n```\n:::\n:::\n\n## Train the top layer\n\n::: {.cell}\n\n```{.r .cell-code}\nmodel %>% compile(\n  optimizer = optimizer_adam(),\n  loss = 
…
